{
  "format": "layers-model",
  "generatedBy": "keras v3.13.2",
  "convertedBy": "TensorFlow.js Converter v4.22.0",
  "modelTopology": {
    "keras_version": "3.13.2",
    "backend": "tensorflow",
    "model_config": {
      "class_name": "Functional",
      "config": {
        "name": "Wide_Deep_Gated_Fusion",
        "trainable": true,
        "layers": [
          {
            "class_name": "InputLayer",
            "config": {
              "batch_shape": [
                null,
                250
              ],
              "dtype": "float32",
              "sparse": false,
              "ragged": false,
              "name": "seq_input",
              "optional": false,
              "batchInputShape": [
                null,
                250
              ]
            },
            "name": "seq_input",
            "inbound_nodes": []
          },
          {
            "class_name": "Embedding",
            "config": {
              "name": "embedding",
              "trainable": false,
              "dtype": {
                "module": "keras",
                "class_name": "DTypePolicy",
                "config": {
                  "name": "float32"
                },
                "registered_name": null
              },
              "input_dim": 101,
              "output_dim": 64,
              "embeddings_initializer": {
                "module": "keras.initializers",
                "class_name": "RandomUniform",
                "config": {
                  "seed": null,
                  "minval": -0.05,
                  "maxval": 0.05
                },
                "registered_name": null
              },
              "embeddings_constraint": null,
              "mask_zero": false,
              "quantization_config": null
            },
            "name": "embedding",
            "inbound_nodes": [
              [
                [
                  "seq_input",
                  0,
                  0,
                  {}
                ]
              ]
            ]
          },
          {
            "class_name": "SpatialDropout1D",
            "config": {
              "rate": 0.2,
              "seed": null,
              "name": "spatial_dropout1d",
              "dtype": "float32"
            },
            "name": "spatial_dropout1d",
            "inbound_nodes": [
              [
                [
                  "embedding",
                  0,
                  0,
                  {}
                ]
              ]
            ]
          },
          {
            "class_name": "Conv1D",
            "config": {
              "name": "conv1d",
              "trainable": false,
              "dtype": {
                "module": "keras",
                "class_name": "DTypePolicy",
                "config": {
                  "name": "float32"
                },
                "registered_name": null
              },
              "filters": 32,
              "kernel_size": [
                9
              ],
              "strides": [
                1
              ],
              "padding": "same",
              "data_format": "channels_last",
              "dilation_rate": [
                1
              ],
              "groups": 1,
              "activation": "linear",
              "use_bias": false,
              "kernel_initializer": {
                "module": "keras.initializers",
                "class_name": "HeNormal",
                "config": {
                  "seed": null
                },
                "registered_name": null
              },
              "bias_initializer": {
                "module": "keras.initializers",
                "class_name": "Zeros",
                "config": {},
                "registered_name": null
              },
              "kernel_constraint": null,
              "bias_constraint": null
            },
            "name": "conv1d",
            "inbound_nodes": [
              [
                [
                  "spatial_dropout1d",
                  0,
                  0,
                  {}
                ]
              ]
            ]
          },
          {
            "class_name": "BatchNormalization",
            "config": {
              "name": "batch_normalization",
              "trainable": true,
              "dtype": {
                "module": "keras",
                "class_name": "DTypePolicy",
                "config": {
                  "name": "float32"
                },
                "registered_name": null
              },
              "axis": -1,
              "momentum": 0.99,
              "epsilon": 0.001,
              "center": true,
              "scale": true,
              "beta_initializer": {
                "module": "keras.initializers",
                "class_name": "Zeros",
                "config": {},
                "registered_name": null
              },
              "gamma_initializer": {
                "module": "keras.initializers",
                "class_name": "Ones",
                "config": {},
                "registered_name": null
              },
              "moving_mean_initializer": {
                "module": "keras.initializers",
                "class_name": "Zeros",
                "config": {},
                "registered_name": null
              },
              "moving_variance_initializer": {
                "module": "keras.initializers",
                "class_name": "Ones",
                "config": {},
                "registered_name": null
              },
              "beta_constraint": null,
              "gamma_constraint": null,
              "synchronized": false
            },
            "name": "batch_normalization",
            "inbound_nodes": [
              [
                [
                  "conv1d",
                  0,
                  0,
                  {}
                ]
              ]
            ]
          },
          {
            "class_name": "Activation",
            "config": {
              "name": "activation",
              "trainable": false,
              "dtype": {
                "module": "keras",
                "class_name": "DTypePolicy",
                "config": {
                  "name": "float32"
                },
                "registered_name": null
              },
              "activation": "relu"
            },
            "name": "activation",
            "inbound_nodes": [
              [
                [
                  "batch_normalization",
                  0,
                  0,
                  {}
                ]
              ]
            ]
          },
          {
            "class_name": "Conv1D",
            "config": {
              "name": "conv1d_1",
              "trainable": false,
              "dtype": {
                "module": "keras",
                "class_name": "DTypePolicy",
                "config": {
                  "name": "float32"
                },
                "registered_name": null
              },
              "filters": 32,
              "kernel_size": [
                9
              ],
              "strides": [
                1
              ],
              "padding": "same",
              "data_format": "channels_last",
              "dilation_rate": [
                1
              ],
              "groups": 1,
              "activation": "linear",
              "use_bias": false,
              "kernel_initializer": {
                "module": "keras.initializers",
                "class_name": "HeNormal",
                "config": {
                  "seed": null
                },
                "registered_name": null
              },
              "bias_initializer": {
                "module": "keras.initializers",
                "class_name": "Zeros",
                "config": {},
                "registered_name": null
              },
              "kernel_constraint": null,
              "bias_constraint": null
            },
            "name": "conv1d_1",
            "inbound_nodes": [
              [
                [
                  "activation",
                  0,
                  0,
                  {}
                ]
              ]
            ]
          },
          {
            "class_name": "BatchNormalization",
            "config": {
              "name": "batch_normalization_1",
              "trainable": true,
              "dtype": {
                "module": "keras",
                "class_name": "DTypePolicy",
                "config": {
                  "name": "float32"
                },
                "registered_name": null
              },
              "axis": -1,
              "momentum": 0.99,
              "epsilon": 0.001,
              "center": true,
              "scale": true,
              "beta_initializer": {
                "module": "keras.initializers",
                "class_name": "Zeros",
                "config": {},
                "registered_name": null
              },
              "gamma_initializer": {
                "module": "keras.initializers",
                "class_name": "Ones",
                "config": {},
                "registered_name": null
              },
              "moving_mean_initializer": {
                "module": "keras.initializers",
                "class_name": "Zeros",
                "config": {},
                "registered_name": null
              },
              "moving_variance_initializer": {
                "module": "keras.initializers",
                "class_name": "Ones",
                "config": {},
                "registered_name": null
              },
              "beta_constraint": null,
              "gamma_constraint": null,
              "synchronized": false
            },
            "name": "batch_normalization_1",
            "inbound_nodes": [
              [
                [
                  "conv1d_1",
                  0,
                  0,
                  {}
                ]
              ]
            ]
          },
          {
            "class_name": "GlobalAveragePooling1D",
            "config": {
              "name": "global_average_pooling1d",
              "trainable": false,
              "dtype": {
                "module": "keras",
                "class_name": "DTypePolicy",
                "config": {
                  "name": "float32"
                },
                "registered_name": null
              },
              "data_format": "channels_last",
              "keepdims": false
            },
            "name": "global_average_pooling1d",
            "inbound_nodes": [
              [
                [
                  "batch_normalization_1",
                  0,
                  0,
                  {}
                ]
              ]
            ]
          },
          {
            "class_name": "Dense",
            "config": {
              "name": "dense",
              "trainable": true,
              "dtype": {
                "module": "keras",
                "class_name": "DTypePolicy",
                "config": {
                  "name": "float32"
                },
                "registered_name": null
              },
              "units": 8,
              "activation": "relu",
              "use_bias": false,
              "kernel_initializer": {
                "module": "keras.initializers",
                "class_name": "GlorotUniform",
                "config": {
                  "seed": null
                },
                "registered_name": null
              },
              "bias_initializer": {
                "module": "keras.initializers",
                "class_name": "Zeros",
                "config": {},
                "registered_name": null
              },
              "kernel_constraint": null,
              "bias_constraint": null,
              "quantization_config": null
            },
            "name": "dense",
            "inbound_nodes": [
              [
                [
                  "global_average_pooling1d",
                  0,
                  0,
                  {}
                ]
              ]
            ]
          },
          {
            "class_name": "Dense",
            "config": {
              "name": "dense_1",
              "trainable": true,
              "dtype": {
                "module": "keras",
                "class_name": "DTypePolicy",
                "config": {
                  "name": "float32"
                },
                "registered_name": null
              },
              "units": 32,
              "activation": "sigmoid",
              "use_bias": false,
              "kernel_initializer": {
                "module": "keras.initializers",
                "class_name": "GlorotUniform",
                "config": {
                  "seed": null
                },
                "registered_name": null
              },
              "bias_initializer": {
                "module": "keras.initializers",
                "class_name": "Zeros",
                "config": {},
                "registered_name": null
              },
              "kernel_constraint": null,
              "bias_constraint": null,
              "quantization_config": null
            },
            "name": "dense_1",
            "inbound_nodes": [
              [
                [
                  "dense",
                  0,
                  0,
                  {}
                ]
              ]
            ]
          },
          {
            "class_name": "Reshape",
            "config": {
              "name": "reshape",
              "trainable": false,
              "dtype": {
                "module": "keras",
                "class_name": "DTypePolicy",
                "config": {
                  "name": "float32"
                },
                "registered_name": null
              },
              "target_shape": [
                1,
                32
              ]
            },
            "name": "reshape",
            "inbound_nodes": [
              [
                [
                  "dense_1",
                  0,
                  0,
                  {}
                ]
              ]
            ]
          },
          {
            "class_name": "Conv1D",
            "config": {
              "name": "conv1d_2",
              "trainable": false,
              "dtype": {
                "module": "keras",
                "class_name": "DTypePolicy",
                "config": {
                  "name": "float32"
                },
                "registered_name": null
              },
              "filters": 32,
              "kernel_size": [
                1
              ],
              "strides": [
                1
              ],
              "padding": "same",
              "data_format": "channels_last",
              "dilation_rate": [
                1
              ],
              "groups": 1,
              "activation": "linear",
              "use_bias": false,
              "kernel_initializer": {
                "module": "keras.initializers",
                "class_name": "HeNormal",
                "config": {
                  "seed": null
                },
                "registered_name": null
              },
              "bias_initializer": {
                "module": "keras.initializers",
                "class_name": "Zeros",
                "config": {},
                "registered_name": null
              },
              "kernel_constraint": null,
              "bias_constraint": null
            },
            "name": "conv1d_2",
            "inbound_nodes": [
              [
                [
                  "spatial_dropout1d",
                  0,
                  0,
                  {}
                ]
              ]
            ]
          },
          {
            "class_name": "Multiply",
            "config": {
              "name": "multiply",
              "trainable": false,
              "dtype": {
                "module": "keras",
                "class_name": "DTypePolicy",
                "config": {
                  "name": "float32"
                },
                "registered_name": null
              }
            },
            "name": "multiply",
            "inbound_nodes": [
              [
                [
                  "batch_normalization_1",
                  0,
                  0,
                  {}
                ],
                [
                  "reshape",
                  0,
                  0,
                  {}
                ]
              ]
            ]
          },
          {
            "class_name": "BatchNormalization",
            "config": {
              "name": "batch_normalization_2",
              "trainable": true,
              "dtype": {
                "module": "keras",
                "class_name": "DTypePolicy",
                "config": {
                  "name": "float32"
                },
                "registered_name": null
              },
              "axis": -1,
              "momentum": 0.99,
              "epsilon": 0.001,
              "center": true,
              "scale": true,
              "beta_initializer": {
                "module": "keras.initializers",
                "class_name": "Zeros",
                "config": {},
                "registered_name": null
              },
              "gamma_initializer": {
                "module": "keras.initializers",
                "class_name": "Ones",
                "config": {},
                "registered_name": null
              },
              "moving_mean_initializer": {
                "module": "keras.initializers",
                "class_name": "Zeros",
                "config": {},
                "registered_name": null
              },
              "moving_variance_initializer": {
                "module": "keras.initializers",
                "class_name": "Ones",
                "config": {},
                "registered_name": null
              },
              "beta_constraint": null,
              "gamma_constraint": null,
              "synchronized": false
            },
            "name": "batch_normalization_2",
            "inbound_nodes": [
              [
                [
                  "conv1d_2",
                  0,
                  0,
                  {}
                ]
              ]
            ]
          },
          {
            "class_name": "Add",
            "config": {
              "name": "add",
              "trainable": false,
              "dtype": {
                "module": "keras",
                "class_name": "DTypePolicy",
                "config": {
                  "name": "float32"
                },
                "registered_name": null
              }
            },
            "name": "add",
            "inbound_nodes": [
              [
                [
                  "multiply",
                  0,
                  0,
                  {}
                ],
                [
                  "batch_normalization_2",
                  0,
                  0,
                  {}
                ]
              ]
            ]
          },
          {
            "class_name": "Activation",
            "config": {
              "name": "activation_1",
              "trainable": false,
              "dtype": {
                "module": "keras",
                "class_name": "DTypePolicy",
                "config": {
                  "name": "float32"
                },
                "registered_name": null
              },
              "activation": "relu"
            },
            "name": "activation_1",
            "inbound_nodes": [
              [
                [
                  "add",
                  0,
                  0,
                  {}
                ]
              ]
            ]
          },
          {
            "class_name": "MaxPooling1D",
            "config": {
              "name": "max_pooling1d",
              "trainable": false,
              "dtype": {
                "module": "keras",
                "class_name": "DTypePolicy",
                "config": {
                  "name": "float32"
                },
                "registered_name": null
              },
              "pool_size": [
                2
              ],
              "padding": "valid",
              "strides": [
                2
              ],
              "data_format": "channels_last"
            },
            "name": "max_pooling1d",
            "inbound_nodes": [
              [
                [
                  "activation_1",
                  0,
                  0,
                  {}
                ]
              ]
            ]
          },
          {
            "class_name": "Conv1D",
            "config": {
              "name": "conv1d_3",
              "trainable": false,
              "dtype": {
                "module": "keras",
                "class_name": "DTypePolicy",
                "config": {
                  "name": "float32"
                },
                "registered_name": null
              },
              "filters": 64,
              "kernel_size": [
                7
              ],
              "strides": [
                1
              ],
              "padding": "same",
              "data_format": "channels_last",
              "dilation_rate": [
                1
              ],
              "groups": 1,
              "activation": "linear",
              "use_bias": false,
              "kernel_initializer": {
                "module": "keras.initializers",
                "class_name": "HeNormal",
                "config": {
                  "seed": null
                },
                "registered_name": null
              },
              "bias_initializer": {
                "module": "keras.initializers",
                "class_name": "Zeros",
                "config": {},
                "registered_name": null
              },
              "kernel_constraint": null,
              "bias_constraint": null
            },
            "name": "conv1d_3",
            "inbound_nodes": [
              [
                [
                  "max_pooling1d",
                  0,
                  0,
                  {}
                ]
              ]
            ]
          },
          {
            "class_name": "BatchNormalization",
            "config": {
              "name": "batch_normalization_3",
              "trainable": true,
              "dtype": {
                "module": "keras",
                "class_name": "DTypePolicy",
                "config": {
                  "name": "float32"
                },
                "registered_name": null
              },
              "axis": -1,
              "momentum": 0.99,
              "epsilon": 0.001,
              "center": true,
              "scale": true,
              "beta_initializer": {
                "module": "keras.initializers",
                "class_name": "Zeros",
                "config": {},
                "registered_name": null
              },
              "gamma_initializer": {
                "module": "keras.initializers",
                "class_name": "Ones",
                "config": {},
                "registered_name": null
              },
              "moving_mean_initializer": {
                "module": "keras.initializers",
                "class_name": "Zeros",
                "config": {},
                "registered_name": null
              },
              "moving_variance_initializer": {
                "module": "keras.initializers",
                "class_name": "Ones",
                "config": {},
                "registered_name": null
              },
              "beta_constraint": null,
              "gamma_constraint": null,
              "synchronized": false
            },
            "name": "batch_normalization_3",
            "inbound_nodes": [
              [
                [
                  "conv1d_3",
                  0,
                  0,
                  {}
                ]
              ]
            ]
          },
          {
            "class_name": "Activation",
            "config": {
              "name": "activation_2",
              "trainable": false,
              "dtype": {
                "module": "keras",
                "class_name": "DTypePolicy",
                "config": {
                  "name": "float32"
                },
                "registered_name": null
              },
              "activation": "relu"
            },
            "name": "activation_2",
            "inbound_nodes": [
              [
                [
                  "batch_normalization_3",
                  0,
                  0,
                  {}
                ]
              ]
            ]
          },
          {
            "class_name": "Conv1D",
            "config": {
              "name": "conv1d_4",
              "trainable": false,
              "dtype": {
                "module": "keras",
                "class_name": "DTypePolicy",
                "config": {
                  "name": "float32"
                },
                "registered_name": null
              },
              "filters": 64,
              "kernel_size": [
                7
              ],
              "strides": [
                1
              ],
              "padding": "same",
              "data_format": "channels_last",
              "dilation_rate": [
                1
              ],
              "groups": 1,
              "activation": "linear",
              "use_bias": false,
              "kernel_initializer": {
                "module": "keras.initializers",
                "class_name": "HeNormal",
                "config": {
                  "seed": null
                },
                "registered_name": null
              },
              "bias_initializer": {
                "module": "keras.initializers",
                "class_name": "Zeros",
                "config": {},
                "registered_name": null
              },
              "kernel_constraint": null,
              "bias_constraint": null
            },
            "name": "conv1d_4",
            "inbound_nodes": [
              [
                [
                  "activation_2",
                  0,
                  0,
                  {}
                ]
              ]
            ]
          },
          {
            "class_name": "BatchNormalization",
            "config": {
              "name": "batch_normalization_4",
              "trainable": true,
              "dtype": {
                "module": "keras",
                "class_name": "DTypePolicy",
                "config": {
                  "name": "float32"
                },
                "registered_name": null
              },
              "axis": -1,
              "momentum": 0.99,
              "epsilon": 0.001,
              "center": true,
              "scale": true,
              "beta_initializer": {
                "module": "keras.initializers",
                "class_name": "Zeros",
                "config": {},
                "registered_name": null
              },
              "gamma_initializer": {
                "module": "keras.initializers",
                "class_name": "Ones",
                "config": {},
                "registered_name": null
              },
              "moving_mean_initializer": {
                "module": "keras.initializers",
                "class_name": "Zeros",
                "config": {},
                "registered_name": null
              },
              "moving_variance_initializer": {
                "module": "keras.initializers",
                "class_name": "Ones",
                "config": {},
                "registered_name": null
              },
              "beta_constraint": null,
              "gamma_constraint": null,
              "synchronized": false
            },
            "name": "batch_normalization_4",
            "inbound_nodes": [
              [
                [
                  "conv1d_4",
                  0,
                  0,
                  {}
                ]
              ]
            ]
          },
          {
            "class_name": "GlobalAveragePooling1D",
            "config": {
              "name": "global_average_pooling1d_1",
              "trainable": false,
              "dtype": {
                "module": "keras",
                "class_name": "DTypePolicy",
                "config": {
                  "name": "float32"
                },
                "registered_name": null
              },
              "data_format": "channels_last",
              "keepdims": false
            },
            "name": "global_average_pooling1d_1",
            "inbound_nodes": [
              [
                [
                  "batch_normalization_4",
                  0,
                  0,
                  {}
                ]
              ]
            ]
          },
          {
            "class_name": "Dense",
            "config": {
              "name": "dense_2",
              "trainable": true,
              "dtype": {
                "module": "keras",
                "class_name": "DTypePolicy",
                "config": {
                  "name": "float32"
                },
                "registered_name": null
              },
              "units": 8,
              "activation": "relu",
              "use_bias": false,
              "kernel_initializer": {
                "module": "keras.initializers",
                "class_name": "GlorotUniform",
                "config": {
                  "seed": null
                },
                "registered_name": null
              },
              "bias_initializer": {
                "module": "keras.initializers",
                "class_name": "Zeros",
                "config": {},
                "registered_name": null
              },
              "kernel_constraint": null,
              "bias_constraint": null,
              "quantization_config": null
            },
            "name": "dense_2",
            "inbound_nodes": [
              [
                [
                  "global_average_pooling1d_1",
                  0,
                  0,
                  {}
                ]
              ]
            ]
          },
          {
            "class_name": "Dense",
            "config": {
              "name": "dense_3",
              "trainable": true,
              "dtype": {
                "module": "keras",
                "class_name": "DTypePolicy",
                "config": {
                  "name": "float32"
                },
                "registered_name": null
              },
              "units": 64,
              "activation": "sigmoid",
              "use_bias": false,
              "kernel_initializer": {
                "module": "keras.initializers",
                "class_name": "GlorotUniform",
                "config": {
                  "seed": null
                },
                "registered_name": null
              },
              "bias_initializer": {
                "module": "keras.initializers",
                "class_name": "Zeros",
                "config": {},
                "registered_name": null
              },
              "kernel_constraint": null,
              "bias_constraint": null,
              "quantization_config": null
            },
            "name": "dense_3",
            "inbound_nodes": [
              [
                [
                  "dense_2",
                  0,
                  0,
                  {}
                ]
              ]
            ]
          },
          {
            "class_name": "Reshape",
            "config": {
              "name": "reshape_1",
              "trainable": false,
              "dtype": {
                "module": "keras",
                "class_name": "DTypePolicy",
                "config": {
                  "name": "float32"
                },
                "registered_name": null
              },
              "target_shape": [
                1,
                64
              ]
            },
            "name": "reshape_1",
            "inbound_nodes": [
              [
                [
                  "dense_3",
                  0,
                  0,
                  {}
                ]
              ]
            ]
          },
          {
            "class_name": "Conv1D",
            "config": {
              "name": "conv1d_5",
              "trainable": false,
              "dtype": {
                "module": "keras",
                "class_name": "DTypePolicy",
                "config": {
                  "name": "float32"
                },
                "registered_name": null
              },
              "filters": 64,
              "kernel_size": [
                1
              ],
              "strides": [
                1
              ],
              "padding": "same",
              "data_format": "channels_last",
              "dilation_rate": [
                1
              ],
              "groups": 1,
              "activation": "linear",
              "use_bias": false,
              "kernel_initializer": {
                "module": "keras.initializers",
                "class_name": "HeNormal",
                "config": {
                  "seed": null
                },
                "registered_name": null
              },
              "bias_initializer": {
                "module": "keras.initializers",
                "class_name": "Zeros",
                "config": {},
                "registered_name": null
              },
              "kernel_constraint": null,
              "bias_constraint": null
            },
            "name": "conv1d_5",
            "inbound_nodes": [
              [
                [
                  "max_pooling1d",
                  0,
                  0,
                  {}
                ]
              ]
            ]
          },
          {
            "class_name": "Multiply",
            "config": {
              "name": "multiply_1",
              "trainable": false,
              "dtype": {
                "module": "keras",
                "class_name": "DTypePolicy",
                "config": {
                  "name": "float32"
                },
                "registered_name": null
              }
            },
            "name": "multiply_1",
            "inbound_nodes": [
              [
                [
                  "batch_normalization_4",
                  0,
                  0,
                  {}
                ],
                [
                  "reshape_1",
                  0,
                  0,
                  {}
                ]
              ]
            ]
          },
          {
            "class_name": "BatchNormalization",
            "config": {
              "name": "batch_normalization_5",
              "trainable": true,
              "dtype": {
                "module": "keras",
                "class_name": "DTypePolicy",
                "config": {
                  "name": "float32"
                },
                "registered_name": null
              },
              "axis": -1,
              "momentum": 0.99,
              "epsilon": 0.001,
              "center": true,
              "scale": true,
              "beta_initializer": {
                "module": "keras.initializers",
                "class_name": "Zeros",
                "config": {},
                "registered_name": null
              },
              "gamma_initializer": {
                "module": "keras.initializers",
                "class_name": "Ones",
                "config": {},
                "registered_name": null
              },
              "moving_mean_initializer": {
                "module": "keras.initializers",
                "class_name": "Zeros",
                "config": {},
                "registered_name": null
              },
              "moving_variance_initializer": {
                "module": "keras.initializers",
                "class_name": "Ones",
                "config": {},
                "registered_name": null
              },
              "beta_constraint": null,
              "gamma_constraint": null,
              "synchronized": false
            },
            "name": "batch_normalization_5",
            "inbound_nodes": [
              [
                [
                  "conv1d_5",
                  0,
                  0,
                  {}
                ]
              ]
            ]
          },
          {
            "class_name": "Add",
            "config": {
              "name": "add_1",
              "trainable": false,
              "dtype": {
                "module": "keras",
                "class_name": "DTypePolicy",
                "config": {
                  "name": "float32"
                },
                "registered_name": null
              }
            },
            "name": "add_1",
            "inbound_nodes": [
              [
                [
                  "multiply_1",
                  0,
                  0,
                  {}
                ],
                [
                  "batch_normalization_5",
                  0,
                  0,
                  {}
                ]
              ]
            ]
          },
          {
            "class_name": "Activation",
            "config": {
              "name": "activation_3",
              "trainable": false,
              "dtype": {
                "module": "keras",
                "class_name": "DTypePolicy",
                "config": {
                  "name": "float32"
                },
                "registered_name": null
              },
              "activation": "relu"
            },
            "name": "activation_3",
            "inbound_nodes": [
              [
                [
                  "add_1",
                  0,
                  0,
                  {}
                ]
              ]
            ]
          },
          {
            "class_name": "MaxPooling1D",
            "config": {
              "name": "max_pooling1d_1",
              "trainable": false,
              "dtype": {
                "module": "keras",
                "class_name": "DTypePolicy",
                "config": {
                  "name": "float32"
                },
                "registered_name": null
              },
              "pool_size": [
                2
              ],
              "padding": "valid",
              "strides": [
                2
              ],
              "data_format": "channels_last"
            },
            "name": "max_pooling1d_1",
            "inbound_nodes": [
              [
                [
                  "activation_3",
                  0,
                  0,
                  {}
                ]
              ]
            ]
          },
          {
            "class_name": "Conv1D",
            "config": {
              "name": "conv1d_6",
              "trainable": false,
              "dtype": {
                "module": "keras",
                "class_name": "DTypePolicy",
                "config": {
                  "name": "float32"
                },
                "registered_name": null
              },
              "filters": 128,
              "kernel_size": [
                5
              ],
              "strides": [
                1
              ],
              "padding": "same",
              "data_format": "channels_last",
              "dilation_rate": [
                1
              ],
              "groups": 1,
              "activation": "linear",
              "use_bias": false,
              "kernel_initializer": {
                "module": "keras.initializers",
                "class_name": "HeNormal",
                "config": {
                  "seed": null
                },
                "registered_name": null
              },
              "bias_initializer": {
                "module": "keras.initializers",
                "class_name": "Zeros",
                "config": {},
                "registered_name": null
              },
              "kernel_constraint": null,
              "bias_constraint": null
            },
            "name": "conv1d_6",
            "inbound_nodes": [
              [
                [
                  "max_pooling1d_1",
                  0,
                  0,
                  {}
                ]
              ]
            ]
          },
          {
            "class_name": "BatchNormalization",
            "config": {
              "name": "batch_normalization_6",
              "trainable": true,
              "dtype": {
                "module": "keras",
                "class_name": "DTypePolicy",
                "config": {
                  "name": "float32"
                },
                "registered_name": null
              },
              "axis": -1,
              "momentum": 0.99,
              "epsilon": 0.001,
              "center": true,
              "scale": true,
              "beta_initializer": {
                "module": "keras.initializers",
                "class_name": "Zeros",
                "config": {},
                "registered_name": null
              },
              "gamma_initializer": {
                "module": "keras.initializers",
                "class_name": "Ones",
                "config": {},
                "registered_name": null
              },
              "moving_mean_initializer": {
                "module": "keras.initializers",
                "class_name": "Zeros",
                "config": {},
                "registered_name": null
              },
              "moving_variance_initializer": {
                "module": "keras.initializers",
                "class_name": "Ones",
                "config": {},
                "registered_name": null
              },
              "beta_constraint": null,
              "gamma_constraint": null,
              "synchronized": false
            },
            "name": "batch_normalization_6",
            "inbound_nodes": [
              [
                [
                  "conv1d_6",
                  0,
                  0,
                  {}
                ]
              ]
            ]
          },
          {
            "class_name": "Activation",
            "config": {
              "name": "activation_4",
              "trainable": false,
              "dtype": {
                "module": "keras",
                "class_name": "DTypePolicy",
                "config": {
                  "name": "float32"
                },
                "registered_name": null
              },
              "activation": "relu"
            },
            "name": "activation_4",
            "inbound_nodes": [
              [
                [
                  "batch_normalization_6",
                  0,
                  0,
                  {}
                ]
              ]
            ]
          },
          {
            "class_name": "Conv1D",
            "config": {
              "name": "conv1d_7",
              "trainable": false,
              "dtype": {
                "module": "keras",
                "class_name": "DTypePolicy",
                "config": {
                  "name": "float32"
                },
                "registered_name": null
              },
              "filters": 128,
              "kernel_size": [
                5
              ],
              "strides": [
                1
              ],
              "padding": "same",
              "data_format": "channels_last",
              "dilation_rate": [
                1
              ],
              "groups": 1,
              "activation": "linear",
              "use_bias": false,
              "kernel_initializer": {
                "module": "keras.initializers",
                "class_name": "HeNormal",
                "config": {
                  "seed": null
                },
                "registered_name": null
              },
              "bias_initializer": {
                "module": "keras.initializers",
                "class_name": "Zeros",
                "config": {},
                "registered_name": null
              },
              "kernel_constraint": null,
              "bias_constraint": null
            },
            "name": "conv1d_7",
            "inbound_nodes": [
              [
                [
                  "activation_4",
                  0,
                  0,
                  {}
                ]
              ]
            ]
          },
          {
            "class_name": "BatchNormalization",
            "config": {
              "name": "batch_normalization_7",
              "trainable": true,
              "dtype": {
                "module": "keras",
                "class_name": "DTypePolicy",
                "config": {
                  "name": "float32"
                },
                "registered_name": null
              },
              "axis": -1,
              "momentum": 0.99,
              "epsilon": 0.001,
              "center": true,
              "scale": true,
              "beta_initializer": {
                "module": "keras.initializers",
                "class_name": "Zeros",
                "config": {},
                "registered_name": null
              },
              "gamma_initializer": {
                "module": "keras.initializers",
                "class_name": "Ones",
                "config": {},
                "registered_name": null
              },
              "moving_mean_initializer": {
                "module": "keras.initializers",
                "class_name": "Zeros",
                "config": {},
                "registered_name": null
              },
              "moving_variance_initializer": {
                "module": "keras.initializers",
                "class_name": "Ones",
                "config": {},
                "registered_name": null
              },
              "beta_constraint": null,
              "gamma_constraint": null,
              "synchronized": false
            },
            "name": "batch_normalization_7",
            "inbound_nodes": [
              [
                [
                  "conv1d_7",
                  0,
                  0,
                  {}
                ]
              ]
            ]
          },
          {
            "class_name": "GlobalAveragePooling1D",
            "config": {
              "name": "global_average_pooling1d_2",
              "trainable": false,
              "dtype": {
                "module": "keras",
                "class_name": "DTypePolicy",
                "config": {
                  "name": "float32"
                },
                "registered_name": null
              },
              "data_format": "channels_last",
              "keepdims": false
            },
            "name": "global_average_pooling1d_2",
            "inbound_nodes": [
              [
                [
                  "batch_normalization_7",
                  0,
                  0,
                  {}
                ]
              ]
            ]
          },
          {
            "class_name": "Dense",
            "config": {
              "name": "dense_4",
              "trainable": true,
              "dtype": {
                "module": "keras",
                "class_name": "DTypePolicy",
                "config": {
                  "name": "float32"
                },
                "registered_name": null
              },
              "units": 8,
              "activation": "relu",
              "use_bias": false,
              "kernel_initializer": {
                "module": "keras.initializers",
                "class_name": "GlorotUniform",
                "config": {
                  "seed": null
                },
                "registered_name": null
              },
              "bias_initializer": {
                "module": "keras.initializers",
                "class_name": "Zeros",
                "config": {},
                "registered_name": null
              },
              "kernel_constraint": null,
              "bias_constraint": null,
              "quantization_config": null
            },
            "name": "dense_4",
            "inbound_nodes": [
              [
                [
                  "global_average_pooling1d_2",
                  0,
                  0,
                  {}
                ]
              ]
            ]
          },
          {
            "class_name": "Dense",
            "config": {
              "name": "dense_5",
              "trainable": true,
              "dtype": {
                "module": "keras",
                "class_name": "DTypePolicy",
                "config": {
                  "name": "float32"
                },
                "registered_name": null
              },
              "units": 128,
              "activation": "sigmoid",
              "use_bias": false,
              "kernel_initializer": {
                "module": "keras.initializers",
                "class_name": "GlorotUniform",
                "config": {
                  "seed": null
                },
                "registered_name": null
              },
              "bias_initializer": {
                "module": "keras.initializers",
                "class_name": "Zeros",
                "config": {},
                "registered_name": null
              },
              "kernel_constraint": null,
              "bias_constraint": null,
              "quantization_config": null
            },
            "name": "dense_5",
            "inbound_nodes": [
              [
                [
                  "dense_4",
                  0,
                  0,
                  {}
                ]
              ]
            ]
          },
          {
            "class_name": "Reshape",
            "config": {
              "name": "reshape_2",
              "trainable": false,
              "dtype": {
                "module": "keras",
                "class_name": "DTypePolicy",
                "config": {
                  "name": "float32"
                },
                "registered_name": null
              },
              "target_shape": [
                1,
                128
              ]
            },
            "name": "reshape_2",
            "inbound_nodes": [
              [
                [
                  "dense_5",
                  0,
                  0,
                  {}
                ]
              ]
            ]
          },
          {
            "class_name": "Conv1D",
            "config": {
              "name": "conv1d_8",
              "trainable": false,
              "dtype": {
                "module": "keras",
                "class_name": "DTypePolicy",
                "config": {
                  "name": "float32"
                },
                "registered_name": null
              },
              "filters": 128,
              "kernel_size": [
                1
              ],
              "strides": [
                1
              ],
              "padding": "same",
              "data_format": "channels_last",
              "dilation_rate": [
                1
              ],
              "groups": 1,
              "activation": "linear",
              "use_bias": false,
              "kernel_initializer": {
                "module": "keras.initializers",
                "class_name": "HeNormal",
                "config": {
                  "seed": null
                },
                "registered_name": null
              },
              "bias_initializer": {
                "module": "keras.initializers",
                "class_name": "Zeros",
                "config": {},
                "registered_name": null
              },
              "kernel_constraint": null,
              "bias_constraint": null
            },
            "name": "conv1d_8",
            "inbound_nodes": [
              [
                [
                  "max_pooling1d_1",
                  0,
                  0,
                  {}
                ]
              ]
            ]
          },
          {
            "class_name": "Multiply",
            "config": {
              "name": "multiply_2",
              "trainable": false,
              "dtype": {
                "module": "keras",
                "class_name": "DTypePolicy",
                "config": {
                  "name": "float32"
                },
                "registered_name": null
              }
            },
            "name": "multiply_2",
            "inbound_nodes": [
              [
                [
                  "batch_normalization_7",
                  0,
                  0,
                  {}
                ],
                [
                  "reshape_2",
                  0,
                  0,
                  {}
                ]
              ]
            ]
          },
          {
            "class_name": "BatchNormalization",
            "config": {
              "name": "batch_normalization_8",
              "trainable": true,
              "dtype": {
                "module": "keras",
                "class_name": "DTypePolicy",
                "config": {
                  "name": "float32"
                },
                "registered_name": null
              },
              "axis": -1,
              "momentum": 0.99,
              "epsilon": 0.001,
              "center": true,
              "scale": true,
              "beta_initializer": {
                "module": "keras.initializers",
                "class_name": "Zeros",
                "config": {},
                "registered_name": null
              },
              "gamma_initializer": {
                "module": "keras.initializers",
                "class_name": "Ones",
                "config": {},
                "registered_name": null
              },
              "moving_mean_initializer": {
                "module": "keras.initializers",
                "class_name": "Zeros",
                "config": {},
                "registered_name": null
              },
              "moving_variance_initializer": {
                "module": "keras.initializers",
                "class_name": "Ones",
                "config": {},
                "registered_name": null
              },
              "beta_constraint": null,
              "gamma_constraint": null,
              "synchronized": false
            },
            "name": "batch_normalization_8",
            "inbound_nodes": [
              [
                [
                  "conv1d_8",
                  0,
                  0,
                  {}
                ]
              ]
            ]
          },
          {
            "class_name": "Add",
            "config": {
              "name": "add_2",
              "trainable": false,
              "dtype": {
                "module": "keras",
                "class_name": "DTypePolicy",
                "config": {
                  "name": "float32"
                },
                "registered_name": null
              }
            },
            "name": "add_2",
            "inbound_nodes": [
              [
                [
                  "multiply_2",
                  0,
                  0,
                  {}
                ],
                [
                  "batch_normalization_8",
                  0,
                  0,
                  {}
                ]
              ]
            ]
          },
          {
            "class_name": "Activation",
            "config": {
              "name": "activation_5",
              "trainable": false,
              "dtype": {
                "module": "keras",
                "class_name": "DTypePolicy",
                "config": {
                  "name": "float32"
                },
                "registered_name": null
              },
              "activation": "relu"
            },
            "name": "activation_5",
            "inbound_nodes": [
              [
                [
                  "add_2",
                  0,
                  0,
                  {}
                ]
              ]
            ]
          },
          {
            "class_name": "MaxPooling1D",
            "config": {
              "name": "max_pooling1d_2",
              "trainable": false,
              "dtype": {
                "module": "keras",
                "class_name": "DTypePolicy",
                "config": {
                  "name": "float32"
                },
                "registered_name": null
              },
              "pool_size": [
                2
              ],
              "padding": "valid",
              "strides": [
                2
              ],
              "data_format": "channels_last"
            },
            "name": "max_pooling1d_2",
            "inbound_nodes": [
              [
                [
                  "activation_5",
                  0,
                  0,
                  {}
                ]
              ]
            ]
          },
          {
            "class_name": "Conv1D",
            "config": {
              "name": "conv1d_9",
              "trainable": false,
              "dtype": {
                "module": "keras",
                "class_name": "DTypePolicy",
                "config": {
                  "name": "float32"
                },
                "registered_name": null
              },
              "filters": 256,
              "kernel_size": [
                3
              ],
              "strides": [
                1
              ],
              "padding": "same",
              "data_format": "channels_last",
              "dilation_rate": [
                1
              ],
              "groups": 1,
              "activation": "linear",
              "use_bias": false,
              "kernel_initializer": {
                "module": "keras.initializers",
                "class_name": "HeNormal",
                "config": {
                  "seed": null
                },
                "registered_name": null
              },
              "bias_initializer": {
                "module": "keras.initializers",
                "class_name": "Zeros",
                "config": {},
                "registered_name": null
              },
              "kernel_constraint": null,
              "bias_constraint": null
            },
            "name": "conv1d_9",
            "inbound_nodes": [
              [
                [
                  "max_pooling1d_2",
                  0,
                  0,
                  {}
                ]
              ]
            ]
          },
          {
            "class_name": "BatchNormalization",
            "config": {
              "name": "batch_normalization_9",
              "trainable": true,
              "dtype": {
                "module": "keras",
                "class_name": "DTypePolicy",
                "config": {
                  "name": "float32"
                },
                "registered_name": null
              },
              "axis": -1,
              "momentum": 0.99,
              "epsilon": 0.001,
              "center": true,
              "scale": true,
              "beta_initializer": {
                "module": "keras.initializers",
                "class_name": "Zeros",
                "config": {},
                "registered_name": null
              },
              "gamma_initializer": {
                "module": "keras.initializers",
                "class_name": "Ones",
                "config": {},
                "registered_name": null
              },
              "moving_mean_initializer": {
                "module": "keras.initializers",
                "class_name": "Zeros",
                "config": {},
                "registered_name": null
              },
              "moving_variance_initializer": {
                "module": "keras.initializers",
                "class_name": "Ones",
                "config": {},
                "registered_name": null
              },
              "beta_constraint": null,
              "gamma_constraint": null,
              "synchronized": false
            },
            "name": "batch_normalization_9",
            "inbound_nodes": [
              [
                [
                  "conv1d_9",
                  0,
                  0,
                  {}
                ]
              ]
            ]
          },
          {
            "class_name": "Activation",
            "config": {
              "name": "activation_6",
              "trainable": false,
              "dtype": {
                "module": "keras",
                "class_name": "DTypePolicy",
                "config": {
                  "name": "float32"
                },
                "registered_name": null
              },
              "activation": "relu"
            },
            "name": "activation_6",
            "inbound_nodes": [
              [
                [
                  "batch_normalization_9",
                  0,
                  0,
                  {}
                ]
              ]
            ]
          },
          {
            "class_name": "Conv1D",
            "config": {
              "name": "conv1d_10",
              "trainable": false,
              "dtype": {
                "module": "keras",
                "class_name": "DTypePolicy",
                "config": {
                  "name": "float32"
                },
                "registered_name": null
              },
              "filters": 256,
              "kernel_size": [
                3
              ],
              "strides": [
                1
              ],
              "padding": "same",
              "data_format": "channels_last",
              "dilation_rate": [
                1
              ],
              "groups": 1,
              "activation": "linear",
              "use_bias": false,
              "kernel_initializer": {
                "module": "keras.initializers",
                "class_name": "HeNormal",
                "config": {
                  "seed": null
                },
                "registered_name": null
              },
              "bias_initializer": {
                "module": "keras.initializers",
                "class_name": "Zeros",
                "config": {},
                "registered_name": null
              },
              "kernel_constraint": null,
              "bias_constraint": null
            },
            "name": "conv1d_10",
            "inbound_nodes": [
              [
                [
                  "activation_6",
                  0,
                  0,
                  {}
                ]
              ]
            ]
          },
          {
            "class_name": "BatchNormalization",
            "config": {
              "name": "batch_normalization_10",
              "trainable": true,
              "dtype": {
                "module": "keras",
                "class_name": "DTypePolicy",
                "config": {
                  "name": "float32"
                },
                "registered_name": null
              },
              "axis": -1,
              "momentum": 0.99,
              "epsilon": 0.001,
              "center": true,
              "scale": true,
              "beta_initializer": {
                "module": "keras.initializers",
                "class_name": "Zeros",
                "config": {},
                "registered_name": null
              },
              "gamma_initializer": {
                "module": "keras.initializers",
                "class_name": "Ones",
                "config": {},
                "registered_name": null
              },
              "moving_mean_initializer": {
                "module": "keras.initializers",
                "class_name": "Zeros",
                "config": {},
                "registered_name": null
              },
              "moving_variance_initializer": {
                "module": "keras.initializers",
                "class_name": "Ones",
                "config": {},
                "registered_name": null
              },
              "beta_constraint": null,
              "gamma_constraint": null,
              "synchronized": false
            },
            "name": "batch_normalization_10",
            "inbound_nodes": [
              [
                [
                  "conv1d_10",
                  0,
                  0,
                  {}
                ]
              ]
            ]
          },
          {
            "class_name": "GlobalAveragePooling1D",
            "config": {
              "name": "global_average_pooling1d_3",
              "trainable": false,
              "dtype": {
                "module": "keras",
                "class_name": "DTypePolicy",
                "config": {
                  "name": "float32"
                },
                "registered_name": null
              },
              "data_format": "channels_last",
              "keepdims": false
            },
            "name": "global_average_pooling1d_3",
            "inbound_nodes": [
              [
                [
                  "batch_normalization_10",
                  0,
                  0,
                  {}
                ]
              ]
            ]
          },
          {
            "class_name": "Dense",
            "config": {
              "name": "dense_6",
              "trainable": true,
              "dtype": {
                "module": "keras",
                "class_name": "DTypePolicy",
                "config": {
                  "name": "float32"
                },
                "registered_name": null
              },
              "units": 16,
              "activation": "relu",
              "use_bias": false,
              "kernel_initializer": {
                "module": "keras.initializers",
                "class_name": "GlorotUniform",
                "config": {
                  "seed": null
                },
                "registered_name": null
              },
              "bias_initializer": {
                "module": "keras.initializers",
                "class_name": "Zeros",
                "config": {},
                "registered_name": null
              },
              "kernel_constraint": null,
              "bias_constraint": null,
              "quantization_config": null
            },
            "name": "dense_6",
            "inbound_nodes": [
              [
                [
                  "global_average_pooling1d_3",
                  0,
                  0,
                  {}
                ]
              ]
            ]
          },
          {
            "class_name": "InputLayer",
            "config": {
              "batch_shape": [
                null,
                32
              ],
              "dtype": "float32",
              "sparse": false,
              "ragged": false,
              "name": "structural_input",
              "optional": false,
              "batchInputShape": [
                null,
                32
              ]
            },
            "name": "structural_input",
            "inbound_nodes": []
          },
          {
            "class_name": "Dense",
            "config": {
              "name": "dense_7",
              "trainable": true,
              "dtype": {
                "module": "keras",
                "class_name": "DTypePolicy",
                "config": {
                  "name": "float32"
                },
                "registered_name": null
              },
              "units": 256,
              "activation": "sigmoid",
              "use_bias": false,
              "kernel_initializer": {
                "module": "keras.initializers",
                "class_name": "GlorotUniform",
                "config": {
                  "seed": null
                },
                "registered_name": null
              },
              "bias_initializer": {
                "module": "keras.initializers",
                "class_name": "Zeros",
                "config": {},
                "registered_name": null
              },
              "kernel_constraint": null,
              "bias_constraint": null,
              "quantization_config": null
            },
            "name": "dense_7",
            "inbound_nodes": [
              [
                [
                  "dense_6",
                  0,
                  0,
                  {}
                ]
              ]
            ]
          },
          {
            "class_name": "Dense",
            "config": {
              "name": "dense_8",
              "trainable": true,
              "dtype": {
                "module": "keras",
                "class_name": "DTypePolicy",
                "config": {
                  "name": "float32"
                },
                "registered_name": null
              },
              "units": 64,
              "activation": "relu",
              "use_bias": true,
              "kernel_initializer": {
                "module": "keras.initializers",
                "class_name": "GlorotUniform",
                "config": {
                  "seed": null
                },
                "registered_name": null
              },
              "bias_initializer": {
                "module": "keras.initializers",
                "class_name": "Zeros",
                "config": {},
                "registered_name": null
              },
              "kernel_constraint": null,
              "bias_constraint": null,
              "quantization_config": null
            },
            "name": "dense_8",
            "inbound_nodes": [
              [
                [
                  "structural_input",
                  0,
                  0,
                  {}
                ]
              ]
            ]
          },
          {
            "class_name": "Reshape",
            "config": {
              "name": "reshape_3",
              "trainable": false,
              "dtype": {
                "module": "keras",
                "class_name": "DTypePolicy",
                "config": {
                  "name": "float32"
                },
                "registered_name": null
              },
              "target_shape": [
                1,
                256
              ]
            },
            "name": "reshape_3",
            "inbound_nodes": [
              [
                [
                  "dense_7",
                  0,
                  0,
                  {}
                ]
              ]
            ]
          },
          {
            "class_name": "Conv1D",
            "config": {
              "name": "conv1d_11",
              "trainable": false,
              "dtype": {
                "module": "keras",
                "class_name": "DTypePolicy",
                "config": {
                  "name": "float32"
                },
                "registered_name": null
              },
              "filters": 256,
              "kernel_size": [
                1
              ],
              "strides": [
                1
              ],
              "padding": "same",
              "data_format": "channels_last",
              "dilation_rate": [
                1
              ],
              "groups": 1,
              "activation": "linear",
              "use_bias": false,
              "kernel_initializer": {
                "module": "keras.initializers",
                "class_name": "HeNormal",
                "config": {
                  "seed": null
                },
                "registered_name": null
              },
              "bias_initializer": {
                "module": "keras.initializers",
                "class_name": "Zeros",
                "config": {},
                "registered_name": null
              },
              "kernel_constraint": null,
              "bias_constraint": null
            },
            "name": "conv1d_11",
            "inbound_nodes": [
              [
                [
                  "max_pooling1d_2",
                  0,
                  0,
                  {}
                ]
              ]
            ]
          },
          {
            "class_name": "BatchNormalization",
            "config": {
              "name": "batch_normalization_12",
              "trainable": true,
              "dtype": {
                "module": "keras",
                "class_name": "DTypePolicy",
                "config": {
                  "name": "float32"
                },
                "registered_name": null
              },
              "axis": -1,
              "momentum": 0.99,
              "epsilon": 0.001,
              "center": true,
              "scale": true,
              "beta_initializer": {
                "module": "keras.initializers",
                "class_name": "Zeros",
                "config": {},
                "registered_name": null
              },
              "gamma_initializer": {
                "module": "keras.initializers",
                "class_name": "Ones",
                "config": {},
                "registered_name": null
              },
              "moving_mean_initializer": {
                "module": "keras.initializers",
                "class_name": "Zeros",
                "config": {},
                "registered_name": null
              },
              "moving_variance_initializer": {
                "module": "keras.initializers",
                "class_name": "Ones",
                "config": {},
                "registered_name": null
              },
              "beta_constraint": null,
              "gamma_constraint": null,
              "synchronized": false
            },
            "name": "batch_normalization_12",
            "inbound_nodes": [
              [
                [
                  "dense_8",
                  0,
                  0,
                  {}
                ]
              ]
            ]
          },
          {
            "class_name": "Multiply",
            "config": {
              "name": "multiply_3",
              "trainable": false,
              "dtype": {
                "module": "keras",
                "class_name": "DTypePolicy",
                "config": {
                  "name": "float32"
                },
                "registered_name": null
              }
            },
            "name": "multiply_3",
            "inbound_nodes": [
              [
                [
                  "batch_normalization_10",
                  0,
                  0,
                  {}
                ],
                [
                  "reshape_3",
                  0,
                  0,
                  {}
                ]
              ]
            ]
          },
          {
            "class_name": "BatchNormalization",
            "config": {
              "name": "batch_normalization_11",
              "trainable": true,
              "dtype": {
                "module": "keras",
                "class_name": "DTypePolicy",
                "config": {
                  "name": "float32"
                },
                "registered_name": null
              },
              "axis": -1,
              "momentum": 0.99,
              "epsilon": 0.001,
              "center": true,
              "scale": true,
              "beta_initializer": {
                "module": "keras.initializers",
                "class_name": "Zeros",
                "config": {},
                "registered_name": null
              },
              "gamma_initializer": {
                "module": "keras.initializers",
                "class_name": "Ones",
                "config": {},
                "registered_name": null
              },
              "moving_mean_initializer": {
                "module": "keras.initializers",
                "class_name": "Zeros",
                "config": {},
                "registered_name": null
              },
              "moving_variance_initializer": {
                "module": "keras.initializers",
                "class_name": "Ones",
                "config": {},
                "registered_name": null
              },
              "beta_constraint": null,
              "gamma_constraint": null,
              "synchronized": false
            },
            "name": "batch_normalization_11",
            "inbound_nodes": [
              [
                [
                  "conv1d_11",
                  0,
                  0,
                  {}
                ]
              ]
            ]
          },
          {
            "class_name": "Dropout",
            "config": {
              "name": "dropout",
              "trainable": false,
              "dtype": {
                "module": "keras",
                "class_name": "DTypePolicy",
                "config": {
                  "name": "float32"
                },
                "registered_name": null
              },
              "rate": 0.2,
              "seed": null,
              "noise_shape": null
            },
            "name": "dropout",
            "inbound_nodes": [
              [
                [
                  "batch_normalization_12",
                  0,
                  0,
                  {}
                ]
              ]
            ]
          },
          {
            "class_name": "Add",
            "config": {
              "name": "add_3",
              "trainable": false,
              "dtype": {
                "module": "keras",
                "class_name": "DTypePolicy",
                "config": {
                  "name": "float32"
                },
                "registered_name": null
              }
            },
            "name": "add_3",
            "inbound_nodes": [
              [
                [
                  "multiply_3",
                  0,
                  0,
                  {}
                ],
                [
                  "batch_normalization_11",
                  0,
                  0,
                  {}
                ]
              ]
            ]
          },
          {
            "class_name": "Dense",
            "config": {
              "name": "struct_features",
              "trainable": true,
              "dtype": {
                "module": "keras",
                "class_name": "DTypePolicy",
                "config": {
                  "name": "float32"
                },
                "registered_name": null
              },
              "units": 32,
              "activation": "relu",
              "use_bias": true,
              "kernel_initializer": {
                "module": "keras.initializers",
                "class_name": "GlorotUniform",
                "config": {
                  "seed": null
                },
                "registered_name": null
              },
              "bias_initializer": {
                "module": "keras.initializers",
                "class_name": "Zeros",
                "config": {},
                "registered_name": null
              },
              "kernel_constraint": null,
              "bias_constraint": null,
              "quantization_config": null
            },
            "name": "struct_features",
            "inbound_nodes": [
              [
                [
                  "dropout",
                  0,
                  0,
                  {}
                ]
              ]
            ]
          },
          {
            "class_name": "Activation",
            "config": {
              "name": "activation_7",
              "trainable": false,
              "dtype": {
                "module": "keras",
                "class_name": "DTypePolicy",
                "config": {
                  "name": "float32"
                },
                "registered_name": null
              },
              "activation": "relu"
            },
            "name": "activation_7",
            "inbound_nodes": [
              [
                [
                  "add_3",
                  0,
                  0,
                  {}
                ]
              ]
            ]
          },
          {
            "class_name": "Dense",
            "config": {
              "name": "fusion_gate",
              "trainable": true,
              "dtype": {
                "module": "keras",
                "class_name": "DTypePolicy",
                "config": {
                  "name": "float32"
                },
                "registered_name": null
              },
              "units": 32,
              "activation": "sigmoid",
              "use_bias": true,
              "kernel_initializer": {
                "module": "keras.initializers",
                "class_name": "GlorotUniform",
                "config": {
                  "seed": null
                },
                "registered_name": null
              },
              "bias_initializer": {
                "module": "keras.initializers",
                "class_name": "Zeros",
                "config": {},
                "registered_name": null
              },
              "kernel_constraint": null,
              "bias_constraint": null,
              "quantization_config": null
            },
            "name": "fusion_gate",
            "inbound_nodes": [
              [
                [
                  "struct_features",
                  0,
                  0,
                  {}
                ]
              ]
            ]
          },
          {
            "class_name": "GlobalMaxPooling1D",
            "config": {
              "name": "cnn_features",
              "trainable": false,
              "dtype": {
                "module": "keras",
                "class_name": "DTypePolicy",
                "config": {
                  "name": "float32"
                },
                "registered_name": null
              },
              "data_format": "channels_last",
              "keepdims": false
            },
            "name": "cnn_features",
            "inbound_nodes": [
              [
                [
                  "activation_7",
                  0,
                  0,
                  {}
                ]
              ]
            ]
          },
          {
            "class_name": "Multiply",
            "config": {
              "name": "gated_structural_features",
              "trainable": true,
              "dtype": {
                "module": "keras",
                "class_name": "DTypePolicy",
                "config": {
                  "name": "float32"
                },
                "registered_name": null
              }
            },
            "name": "gated_structural_features",
            "inbound_nodes": [
              [
                [
                  "struct_features",
                  0,
                  0,
                  {}
                ],
                [
                  "fusion_gate",
                  0,
                  0,
                  {}
                ]
              ]
            ]
          },
          {
            "class_name": "Concatenate",
            "config": {
              "name": "fusion_concat",
              "trainable": true,
              "dtype": {
                "module": "keras",
                "class_name": "DTypePolicy",
                "config": {
                  "name": "float32"
                },
                "registered_name": null
              },
              "axis": -1
            },
            "name": "fusion_concat",
            "inbound_nodes": [
              [
                [
                  "cnn_features",
                  0,
                  0,
                  {}
                ],
                [
                  "gated_structural_features",
                  0,
                  0,
                  {}
                ]
              ]
            ]
          },
          {
            "class_name": "Dense",
            "config": {
              "name": "dense_9",
              "trainable": true,
              "dtype": {
                "module": "keras",
                "class_name": "DTypePolicy",
                "config": {
                  "name": "float32"
                },
                "registered_name": null
              },
              "units": 128,
              "activation": "relu",
              "use_bias": true,
              "kernel_initializer": {
                "module": "keras.initializers",
                "class_name": "GlorotUniform",
                "config": {
                  "seed": null
                },
                "registered_name": null
              },
              "bias_initializer": {
                "module": "keras.initializers",
                "class_name": "Zeros",
                "config": {},
                "registered_name": null
              },
              "kernel_constraint": null,
              "bias_constraint": null,
              "quantization_config": null
            },
            "name": "dense_9",
            "inbound_nodes": [
              [
                [
                  "fusion_concat",
                  0,
                  0,
                  {}
                ]
              ]
            ]
          },
          {
            "class_name": "BatchNormalization",
            "config": {
              "name": "batch_normalization_13",
              "trainable": true,
              "dtype": {
                "module": "keras",
                "class_name": "DTypePolicy",
                "config": {
                  "name": "float32"
                },
                "registered_name": null
              },
              "axis": -1,
              "momentum": 0.99,
              "epsilon": 0.001,
              "center": true,
              "scale": true,
              "beta_initializer": {
                "module": "keras.initializers",
                "class_name": "Zeros",
                "config": {},
                "registered_name": null
              },
              "gamma_initializer": {
                "module": "keras.initializers",
                "class_name": "Ones",
                "config": {},
                "registered_name": null
              },
              "moving_mean_initializer": {
                "module": "keras.initializers",
                "class_name": "Zeros",
                "config": {},
                "registered_name": null
              },
              "moving_variance_initializer": {
                "module": "keras.initializers",
                "class_name": "Ones",
                "config": {},
                "registered_name": null
              },
              "beta_constraint": null,
              "gamma_constraint": null,
              "synchronized": false
            },
            "name": "batch_normalization_13",
            "inbound_nodes": [
              [
                [
                  "dense_9",
                  0,
                  0,
                  {}
                ]
              ]
            ]
          },
          {
            "class_name": "Dropout",
            "config": {
              "name": "dropout_1",
              "trainable": false,
              "dtype": {
                "module": "keras",
                "class_name": "DTypePolicy",
                "config": {
                  "name": "float32"
                },
                "registered_name": null
              },
              "rate": 0.3,
              "seed": null,
              "noise_shape": null
            },
            "name": "dropout_1",
            "inbound_nodes": [
              [
                [
                  "batch_normalization_13",
                  0,
                  0,
                  {}
                ]
              ]
            ]
          },
          {
            "class_name": "Dense",
            "config": {
              "name": "main_output",
              "trainable": true,
              "dtype": {
                "module": "keras",
                "class_name": "DTypePolicy",
                "config": {
                  "name": "float32"
                },
                "registered_name": null
              },
              "units": 1,
              "activation": "sigmoid",
              "use_bias": true,
              "kernel_initializer": {
                "module": "keras.initializers",
                "class_name": "GlorotUniform",
                "config": {
                  "seed": null
                },
                "registered_name": null
              },
              "bias_initializer": {
                "module": "keras.initializers",
                "class_name": "Zeros",
                "config": {},
                "registered_name": null
              },
              "kernel_constraint": null,
              "bias_constraint": null,
              "quantization_config": null
            },
            "name": "main_output",
            "inbound_nodes": [
              [
                [
                  "dropout_1",
                  0,
                  0,
                  {}
                ]
              ]
            ]
          },
          {
            "class_name": "Dense",
            "config": {
              "name": "aux_output",
              "trainable": true,
              "dtype": {
                "module": "keras",
                "class_name": "DTypePolicy",
                "config": {
                  "name": "float32"
                },
                "registered_name": null
              },
              "units": 1,
              "activation": "sigmoid",
              "use_bias": true,
              "kernel_initializer": {
                "module": "keras.initializers",
                "class_name": "GlorotUniform",
                "config": {
                  "seed": null
                },
                "registered_name": null
              },
              "bias_initializer": {
                "module": "keras.initializers",
                "class_name": "Zeros",
                "config": {},
                "registered_name": null
              },
              "kernel_constraint": null,
              "bias_constraint": null,
              "quantization_config": null
            },
            "name": "aux_output",
            "inbound_nodes": [
              [
                [
                  "struct_features",
                  0,
                  0,
                  {}
                ]
              ]
            ]
          }
        ],
        "input_layers": [
          [
            "seq_input",
            0,
            0
          ],
          [
            "structural_input",
            0,
            0
          ]
        ],
        "output_layers": [
          [
            "main_output",
            0,
            0
          ],
          [
            "aux_output",
            0,
            0
          ]
        ]
      }
    }
  },
  "weightsManifest": [
    {
      "paths": [
        "group1-shard1of1.bin"
      ],
      "weights": [
        {
          "name": "aux_output/kernel",
          "shape": [
            32,
            1
          ],
          "dtype": "float32"
        },
        {
          "name": "aux_output/bias",
          "shape": [
            1
          ],
          "dtype": "float32"
        },
        {
          "name": "batch_normalization/gamma",
          "shape": [
            32
          ],
          "dtype": "float32"
        },
        {
          "name": "batch_normalization/beta",
          "shape": [
            32
          ],
          "dtype": "float32"
        },
        {
          "name": "batch_normalization/moving_mean",
          "shape": [
            32
          ],
          "dtype": "float32"
        },
        {
          "name": "batch_normalization/moving_variance",
          "shape": [
            32
          ],
          "dtype": "float32"
        },
        {
          "name": "batch_normalization_1/gamma",
          "shape": [
            32
          ],
          "dtype": "float32"
        },
        {
          "name": "batch_normalization_1/beta",
          "shape": [
            32
          ],
          "dtype": "float32"
        },
        {
          "name": "batch_normalization_1/moving_mean",
          "shape": [
            32
          ],
          "dtype": "float32"
        },
        {
          "name": "batch_normalization_1/moving_variance",
          "shape": [
            32
          ],
          "dtype": "float32"
        },
        {
          "name": "batch_normalization_10/gamma",
          "shape": [
            256
          ],
          "dtype": "float32"
        },
        {
          "name": "batch_normalization_10/beta",
          "shape": [
            256
          ],
          "dtype": "float32"
        },
        {
          "name": "batch_normalization_10/moving_mean",
          "shape": [
            256
          ],
          "dtype": "float32"
        },
        {
          "name": "batch_normalization_10/moving_variance",
          "shape": [
            256
          ],
          "dtype": "float32"
        },
        {
          "name": "batch_normalization_11/gamma",
          "shape": [
            256
          ],
          "dtype": "float32"
        },
        {
          "name": "batch_normalization_11/beta",
          "shape": [
            256
          ],
          "dtype": "float32"
        },
        {
          "name": "batch_normalization_11/moving_mean",
          "shape": [
            256
          ],
          "dtype": "float32"
        },
        {
          "name": "batch_normalization_11/moving_variance",
          "shape": [
            256
          ],
          "dtype": "float32"
        },
        {
          "name": "batch_normalization_12/gamma",
          "shape": [
            64
          ],
          "dtype": "float32"
        },
        {
          "name": "batch_normalization_12/beta",
          "shape": [
            64
          ],
          "dtype": "float32"
        },
        {
          "name": "batch_normalization_12/moving_mean",
          "shape": [
            64
          ],
          "dtype": "float32"
        },
        {
          "name": "batch_normalization_12/moving_variance",
          "shape": [
            64
          ],
          "dtype": "float32"
        },
        {
          "name": "batch_normalization_13/gamma",
          "shape": [
            128
          ],
          "dtype": "float32"
        },
        {
          "name": "batch_normalization_13/beta",
          "shape": [
            128
          ],
          "dtype": "float32"
        },
        {
          "name": "batch_normalization_13/moving_mean",
          "shape": [
            128
          ],
          "dtype": "float32"
        },
        {
          "name": "batch_normalization_13/moving_variance",
          "shape": [
            128
          ],
          "dtype": "float32"
        },
        {
          "name": "batch_normalization_2/gamma",
          "shape": [
            32
          ],
          "dtype": "float32"
        },
        {
          "name": "batch_normalization_2/beta",
          "shape": [
            32
          ],
          "dtype": "float32"
        },
        {
          "name": "batch_normalization_2/moving_mean",
          "shape": [
            32
          ],
          "dtype": "float32"
        },
        {
          "name": "batch_normalization_2/moving_variance",
          "shape": [
            32
          ],
          "dtype": "float32"
        },
        {
          "name": "batch_normalization_3/gamma",
          "shape": [
            64
          ],
          "dtype": "float32"
        },
        {
          "name": "batch_normalization_3/beta",
          "shape": [
            64
          ],
          "dtype": "float32"
        },
        {
          "name": "batch_normalization_3/moving_mean",
          "shape": [
            64
          ],
          "dtype": "float32"
        },
        {
          "name": "batch_normalization_3/moving_variance",
          "shape": [
            64
          ],
          "dtype": "float32"
        },
        {
          "name": "batch_normalization_4/gamma",
          "shape": [
            64
          ],
          "dtype": "float32"
        },
        {
          "name": "batch_normalization_4/beta",
          "shape": [
            64
          ],
          "dtype": "float32"
        },
        {
          "name": "batch_normalization_4/moving_mean",
          "shape": [
            64
          ],
          "dtype": "float32"
        },
        {
          "name": "batch_normalization_4/moving_variance",
          "shape": [
            64
          ],
          "dtype": "float32"
        },
        {
          "name": "batch_normalization_5/gamma",
          "shape": [
            64
          ],
          "dtype": "float32"
        },
        {
          "name": "batch_normalization_5/beta",
          "shape": [
            64
          ],
          "dtype": "float32"
        },
        {
          "name": "batch_normalization_5/moving_mean",
          "shape": [
            64
          ],
          "dtype": "float32"
        },
        {
          "name": "batch_normalization_5/moving_variance",
          "shape": [
            64
          ],
          "dtype": "float32"
        },
        {
          "name": "batch_normalization_6/gamma",
          "shape": [
            128
          ],
          "dtype": "float32"
        },
        {
          "name": "batch_normalization_6/beta",
          "shape": [
            128
          ],
          "dtype": "float32"
        },
        {
          "name": "batch_normalization_6/moving_mean",
          "shape": [
            128
          ],
          "dtype": "float32"
        },
        {
          "name": "batch_normalization_6/moving_variance",
          "shape": [
            128
          ],
          "dtype": "float32"
        },
        {
          "name": "batch_normalization_7/gamma",
          "shape": [
            128
          ],
          "dtype": "float32"
        },
        {
          "name": "batch_normalization_7/beta",
          "shape": [
            128
          ],
          "dtype": "float32"
        },
        {
          "name": "batch_normalization_7/moving_mean",
          "shape": [
            128
          ],
          "dtype": "float32"
        },
        {
          "name": "batch_normalization_7/moving_variance",
          "shape": [
            128
          ],
          "dtype": "float32"
        },
        {
          "name": "batch_normalization_8/gamma",
          "shape": [
            128
          ],
          "dtype": "float32"
        },
        {
          "name": "batch_normalization_8/beta",
          "shape": [
            128
          ],
          "dtype": "float32"
        },
        {
          "name": "batch_normalization_8/moving_mean",
          "shape": [
            128
          ],
          "dtype": "float32"
        },
        {
          "name": "batch_normalization_8/moving_variance",
          "shape": [
            128
          ],
          "dtype": "float32"
        },
        {
          "name": "batch_normalization_9/gamma",
          "shape": [
            256
          ],
          "dtype": "float32"
        },
        {
          "name": "batch_normalization_9/beta",
          "shape": [
            256
          ],
          "dtype": "float32"
        },
        {
          "name": "batch_normalization_9/moving_mean",
          "shape": [
            256
          ],
          "dtype": "float32"
        },
        {
          "name": "batch_normalization_9/moving_variance",
          "shape": [
            256
          ],
          "dtype": "float32"
        },
        {
          "name": "conv1d/kernel",
          "shape": [
            9,
            64,
            32
          ],
          "dtype": "float32"
        },
        {
          "name": "conv1d_1/kernel",
          "shape": [
            9,
            32,
            32
          ],
          "dtype": "float32"
        },
        {
          "name": "conv1d_10/kernel",
          "shape": [
            3,
            256,
            256
          ],
          "dtype": "float32"
        },
        {
          "name": "conv1d_11/kernel",
          "shape": [
            1,
            128,
            256
          ],
          "dtype": "float32"
        },
        {
          "name": "conv1d_2/kernel",
          "shape": [
            1,
            64,
            32
          ],
          "dtype": "float32"
        },
        {
          "name": "conv1d_3/kernel",
          "shape": [
            7,
            32,
            64
          ],
          "dtype": "float32"
        },
        {
          "name": "conv1d_4/kernel",
          "shape": [
            7,
            64,
            64
          ],
          "dtype": "float32"
        },
        {
          "name": "conv1d_5/kernel",
          "shape": [
            1,
            32,
            64
          ],
          "dtype": "float32"
        },
        {
          "name": "conv1d_6/kernel",
          "shape": [
            5,
            64,
            128
          ],
          "dtype": "float32"
        },
        {
          "name": "conv1d_7/kernel",
          "shape": [
            5,
            128,
            128
          ],
          "dtype": "float32"
        },
        {
          "name": "conv1d_8/kernel",
          "shape": [
            1,
            64,
            128
          ],
          "dtype": "float32"
        },
        {
          "name": "conv1d_9/kernel",
          "shape": [
            3,
            128,
            256
          ],
          "dtype": "float32"
        },
        {
          "name": "dense/kernel",
          "shape": [
            32,
            8
          ],
          "dtype": "float32"
        },
        {
          "name": "dense_1/kernel",
          "shape": [
            8,
            32
          ],
          "dtype": "float32"
        },
        {
          "name": "dense_2/kernel",
          "shape": [
            64,
            8
          ],
          "dtype": "float32"
        },
        {
          "name": "dense_3/kernel",
          "shape": [
            8,
            64
          ],
          "dtype": "float32"
        },
        {
          "name": "dense_4/kernel",
          "shape": [
            128,
            8
          ],
          "dtype": "float32"
        },
        {
          "name": "dense_5/kernel",
          "shape": [
            8,
            128
          ],
          "dtype": "float32"
        },
        {
          "name": "dense_6/kernel",
          "shape": [
            256,
            16
          ],
          "dtype": "float32"
        },
        {
          "name": "dense_7/kernel",
          "shape": [
            16,
            256
          ],
          "dtype": "float32"
        },
        {
          "name": "dense_8/kernel",
          "shape": [
            32,
            64
          ],
          "dtype": "float32"
        },
        {
          "name": "dense_8/bias",
          "shape": [
            64
          ],
          "dtype": "float32"
        },
        {
          "name": "dense_9/kernel",
          "shape": [
            288,
            128
          ],
          "dtype": "float32"
        },
        {
          "name": "dense_9/bias",
          "shape": [
            128
          ],
          "dtype": "float32"
        },
        {
          "name": "embedding/embeddings",
          "shape": [
            101,
            64
          ],
          "dtype": "float32"
        },
        {
          "name": "fusion_gate/kernel",
          "shape": [
            32,
            32
          ],
          "dtype": "float32"
        },
        {
          "name": "fusion_gate/bias",
          "shape": [
            32
          ],
          "dtype": "float32"
        },
        {
          "name": "main_output/kernel",
          "shape": [
            128,
            1
          ],
          "dtype": "float32"
        },
        {
          "name": "main_output/bias",
          "shape": [
            1
          ],
          "dtype": "float32"
        },
        {
          "name": "struct_features/kernel",
          "shape": [
            64,
            32
          ],
          "dtype": "float32"
        },
        {
          "name": "struct_features/bias",
          "shape": [
            32
          ],
          "dtype": "float32"
        }
      ]
    }
  ]
}